MNIST/Autoencoder_1_layers.pth (torch, 407288 bytes, 4 tensors)

encoder.layers.0.weight f4 [64, 784]
00000000: a1f6 5fbc 6af2 a43c ce88 b83c 53df d53c
00000010: f6ca 063d 339a ccbc a310 103d 93ac 2ebc
00000020: 65f6 183c dd88 07bd 8c92 b63c dcfd 513c
00000030: a3c9 8abd e3ff 03be bede 51be a78f c0bc
00000040: 3d85 023d 0e47 f93c 6b46 023d a519 52bc
00000050: 5c17 8f3b f898 60bc dc3a 8e3b 70ca 9abc
00000060: 6aeb d5bc 54e2 0abd 8a60 73bc 4efd 4d3c
00000070: 18c0 5ebc 1ae4 dfbc 40e5 053d 8a22 243c
00000080: 82a8 c23d b787 e33d 7bee 8abe c184 c7be
00000090: fe69 7e3e 2d8a cb3b be82 213e 4e6c 973d
000000a0: fd8c 2bbd ebb6 2c3d 55e3 69bd 3581 cbbd
000000b0: 84a7 22be 501a a0be a5ea 35bd 47d4 a5bc
000000c0: 3cc4 91bd 820b 7bbe 338e 8bbd bc78 77bd
000000d0: e5fb 8f3b 75e5 d83c e069 86bc e6e1 03bd
000000e0: 9507 903c d219 013d 8983 053d 0e77 ef3d
000000f0: bc1c c83e 2955 9b3e 6d50 23bc 4645 7fbe
00000100: 918a 5ebe 42ea 03be 880a ca3d bfdd 203e
00000110: 120e 973c 197c c3bd b58f 563c a3f7 fb3a
00000120: ac47 d4bc 23eb ba3c b017 dcbc e63e 44bb
00000130: 242b 193d 2100 58bd 3fd1 26be 7601 a7bd
00000140: e8c9 20be 6ea8 093b a583 bbbc 2ac5 2abc
00000150: 45c1 10bc 15ad a33c cf41 d03e 0ddc 25bd
00000160: e6d8 883e e7dc 803d 2592 cc3c 3186 f83d
00000170: 355d 00bd f3ac c1bc 67ae e93c e397 a43c
00000180: 2310 dfbd 4ace 5b3c 733a 91ba 9ebb 493d
00000190: ecad a23d 210e e93c 671c 6a3d 15f3 d93c
000001a0: 0cbb 843d d4ce f3bc a350 a9bb 406c 9abd
000001b0: 7f72 343e 3bdb 3ebc 4718 fc3e ae5c 16bc
000001c0: b13b f1bc 9b04 6f3e 62e6 723e 79e3 9dbd
000001d0: 6d2f 963d 29af dfbd 947d 0c38 b358 cb3c
000001e0: 0e35 58bc 03c5 ad3d c00d df3d e374 733b
000001f0: 2eb4 073d 1f27 b9bd 38dc 553c cadd a53b
00000200: d94f 05bd c467 c43c dc3b 35bc 5f2a 59bb
00000210: 6966 67bd 7b58 c83c fcd6 1b3d f162 843c
00000220: 5c4e 99bd 3e9f ac3c e6ca aa3d 3789 003f
00000230: 4a4a 7bbc 9303 dbbb 39a5 99be 41c0 f8bd
00000240: 6eb1 283d c1cf 80bd 4633 d83b a69b f63c
00000250: 2c73 a13d 83da c73d dd85 153d 28a3 813d
00000260: 8da8 43bc c372 42bd beef d1bc 7ad9 9abc
00000270: 4a97 14bd a5c4 8dbd 1c8d cebd 8889 efbd
00000280: 5f30 69bd ea02 183c 391f 503d 10a2 aebb
00000290: 8bd3 353c 7444 71bd c09a 96bc d73a 103f
000002a0: 1356 103d b49d 3abe 61d9 3b3d 7820 a9bc
000002b0: 4a14 2cbd a1e8 f2bc b1f0 9c3c 4d47 9e3b
000002c0: 465f ff3c 6ee0 233d 16d5 b43c b729 05bd
000002d0: 05c0 25bc e5df dfb9 c117 8a3c 2ee1 503d
000002e0: 1ed2 a23c f026 a9bd edb3 2bbe f408 45be
000002f0: 114d 49bd c47c 5e3d 4dd3 893d f4d2 d63d
00000300: ec33 06bc 4416 693d 91cf 083e eabe 91bd
00000310: 5fab bbbe 155c a73d c25a 2bbe d2c7 22bd
00000320: 5500 b6bd cdc1 8fbc 1b97 3a3c 44ed 0a3c
00000330: 95bc 093c 2803 21bb 0e79 0bbc 4a2d 353b
00000340: a691 433d c2f8 833d 2fa8 223d af8e ab3c
00000350: 93f5 2fbc 7149 18be 9c9b 79be 2003 35be
00000360: f39a 50bd c8e1 5c3d 8828 b83d 2698 243d
00000370: 015d b53c 20c1 653d 75a2 293d 90ae 50bd
00000380: d258 13bf d3ec 353e 2912 87bd 18b5 1b3d
00000390: 40dc b5bd 27f2 f4bc 9acb ec3c cbd2 503c
000003a0: 8afd 46bd 7539 2b3b b148 7bbc e04c 203d
000003b0: 671f 303d 9bb2 613d bd08 0a3d 459b aebb
000003c0: a6ab 14bd 7d9c 2ebe 433a 8cbe 6f8a 39be
000003d0: 3e9b a53c d25d b23d ab2b dc3b 7f9c 303d
000003e0: 4428 423c be62 7e3d 91ea 98bd 9034 ea3a
000003f0: 5c84 a23c d83a bf3d 399b 06be 7ae7 abbd
-0.013669641 0.020135123 0.022526171 0.026107466 0.032908402 -0.024975872 0.035172116 -0.010661262
0.009336089 -0.033089507 0.022286676 0.012816872 -0.067767404 -0.12890582 -0.20495126 -0.023505999
0.031865347 0.03042939 0.031805437 -0.012823497 0.0043667983 -0.013708346 0.0043405127 -0.018895358
-0.02611323 -0.03390725 -0.01485456 0.0125726 -0.013595603 -0.027330447 0.032689333 0.010018
0.095047966 0.1110987 -0.2713507 -0.3896847 0.2484512 0.00621154 0.1577253 0.07393704
-0.041882504 0.04216663 -0.057101566 -0.09936754 -0.15884215 -0.31270075 -0.044413228 -0.020242823
-0.07117507 -0.24516109 -0.06814232 -0.060417876 0.004394042 0.026476601 -0.016407907 -0.032197855
0.01758174 0.031518765 0.032596145 0.1169263 0.39084423 0.3033841 -0.0099679055 -0.2492877
-0.21732546 -0.12882331 0.0986529 0.1570959 0.018439326 -0.09545154 0.013095786 0.0019223582
-0.025913082 0.0228172 -0.026866764 -0.0029944717 0.037394658 -0.052734498 -0.16290759 -0.081545755
-0.15702021 0.0021004933 -0.022889921 -0.010422984 -0.008835142 0.019979993 0.40675208 -0.04049306
0.2672798 0.06292134 0.02497203 0.1213497 -0.03133889 -0.023642039 0.028525544 0.020091956
-0.1089175 0.013415882 -0.0011080041 0.04925119 0.07943329 0.02844912 0.057155993 0.026605168
0.06480989 -0.02976171 -0.0051670833 -0.07540178 0.17621802 -0.011648948 0.49237272 -0.00917737
-0.029447408 0.233416 0.23720697 -0.077094026 0.073332645 -0.10922081 3.3495555e-05 0.024822569
-0.013196243 0.08484843 0.108912945 0.0037148527 0.033130817 -0.09040665 0.0130529925 0.0050618397
-0.03254685 0.02397526 -0.011061635 -0.0033136827 -0.05649415 0.024456253 0.038046822 0.01616046
-0.07485649 0.021072026 0.08339481 0.50209373 -0.015337536 -0.0066837757 -0.30008867 -0.121460445
0.041184835 -0.06289626 0.006597909 0.030103516 0.078832954 0.09758475 0.036504615 0.06329948
-0.011942041 -0.047472727 -0.025627013 -0.018902529 -0.036277093 -0.069222726 -0.10085508 -0.11696154
-0.056930896 0.0092780385 0.050811026 -0.005329378 0.011097799 -0.058903173 -0.018384337 0.5633978
0.035238337 -0.18224221 0.045861606 -0.020645365 -0.042011537 -0.029651942 0.01915774 0.004830277
0.03117336 0.040008955 0.022074264 -0.032510486 -0.010116582 -0.0004270069 0.01685703 0.050995998
0.019875582 -0.0825938 -0.16767855 -0.19241697 -0.049145762 0.054318205 0.067297556 0.10489455
-0.00819109 0.056906 0.1336043 -0.07116492 -0.36654183 0.0817186 -0.1673384 -0.039741345
-0.08886782 -0.017548466 0.011388565 0.00847942 0.008406778 -0.0024568532 -0.008512748 0.0027645403
0.047746323 0.06443931 0.039711174 0.02094206 -0.010739702 -0.14871766 -0.24375767 -0.17676973
-0.05092902 0.05392626 0.08992106 0.040184163 0.022139074 0.05609238 0.041414697 -0.050947726
-0.57557404 0.17766123 -0.06595261 0.0380145 -0.088799 -0.029900623 0.028905679 0.012745569
-0.048581637 0.0026126776 -0.015337155 0.039135814 0.042998698 0.055101972 0.03369974 -0.005328568
-0.03629651 -0.17051883 -0.273882 -0.18119214 0.020215627 0.08709301 0.006719073 0.043117996
0.01185042 0.062105887 -0.07466615 0.0017868448 0.019838504 0.093373954 -0.1314515 -0.0839376

encoder.layers.0.bias f4 [64]
00000000: 4925 8ebf c819 eb3f 654f 503e 8102 c73d
00000010: 20f9 983e 7889 863e 6820 ba3e 816d 083f
00000020: bdbd 8d3e 79d1 773f b1c5 9dbe e4b3 ae3e
00000030: be91 943d d587 aebe d4de de3d d499 bc3e
00000040: b3ae 923e 8903 e1be 5e42 3a3f 2f75 33bf
00000050: e946 5a3e ce79 593e d5b0 a0bf b5ac e1bf
00000060: 8cd3 7e3f c782 10bf e75c d83e 159a 993e
00000070: 728d 463e 5eeb 0a40 a2b8 ae3e 7c77 a33f
00000080: 5c1a da3e 1fa6 15c0 82b5 13c0 d880 d93e
00000090: 47e3 8e3e eb2b b23e 2dbe 7fbf aaf4 bfbf
000000a0: ca77 d23d f8f1 fa3d 3f69 9a3f 9721 6f3e
000000b0: 15aa bbbe e84c 7fbf 31f1 4a3e 6f29 223d
000000c0: a1eb 773e a896 b33e 8951 f33f 0692 e43e
000000d0: 1be6 fa3e 3ffd 343f b8fc 953d 0ce9 fe3e
000000e0: faae ac3e cb87 083f 4611 393e 92ff d53e
000000f0: 9c52 263f 6afe 05bf d056 493e 09c5 d93e
-1.1105129 1.8367243 0.20342787 0.097172745 0.29877567 0.26276755 0.3635285 0.5329209
0.2768382 0.96804005 -0.3081489 0.3412162 0.072543606 -0.34088007 0.10882345 0.36836112
0.2864891 -0.4394801 0.7275752 -0.7010068 0.21316113 0.21237871 -1.2553965 -1.7630831
0.99541545 -0.5644955 0.4225838 0.30000368 0.19389895 2.1706157 0.3412524 1.2770839
0.42598236 -2.3382642 -2.3079534 0.42481112 0.27907774 0.34799132 -0.9989956 -1.499654
0.10276754 0.12253183 1.2063369 0.23352657 -0.366532 -0.99726725 0.1981857 0.039590295
0.24210979 0.3507588 1.9009258 0.44642657 0.49003682 0.7069892 0.07323593 0.49787176
0.33727247 0.53332204 0.18072996 0.41796547 0.649698 -0.5234133 0.19662023 0.42533138

decoder.layers.0.weight f4 [784, 64]
00000000: 9b7c 3bbe 71b7 babe 92e0 64be c05d b4be
00000010: 15f8 8fbe fcc2 e4be d671 25be a729 91be
00000020: a3d8 c5be 37c3 8cbe 01c3 5dbe 4ffb 5bbe
00000030: ba62 2ebe 3cfc 86be f20e 95be f900 4bbe
00000040: d471 e2be c2ea c0be 2cb8 7dbe 224c a9be
00000050: 016f b8be 19e6 95be 3873 86be 1ccb 91be
00000060: 26fd b3be 234e 77be 0010 97be f30e b3be
00000070: ef0e 69be 2694 5fbe f267 c7be 029d c9be
00000080: 24e7 a1be ef82 64be 7a57 40be 113a c4be
00000090: c37a b9be 5ac3 4bbe c4bc 4dbe ff3f bebe
000000a0: 5acf 4cbe 68b6 9bbe 4322 2bbe 83bc a0be
000000b0: 4cd4 7ebe bc29 c3be 1243 9abe f02b 49be
000000c0: 010a 53be adfe bbbe 68c8 80be 336d 85be
000000d0: ca8b 89be b649 5cbe ebf1 a4be 634d 89be
000000e0: 478d bdbe 72bd 99be 8939 bdbe 621a babe
000000f0: 9397 b7be bffb 5abe 02f7 8fbe 6f04 78be
00000100: 416a 91be 5e94 cfbe 0947 89be 44d2 2bbe
00000110: d37d 3bbe a29b e0be d05c a7be 636f 4bbe
00000120: a4c3 5bbe 22a4 b5be 8bf7 a1be 64c6 97be
00000130: 5bf4 afbe eb22 95be 1317 a9be b6f2 69be
00000140: 19e6 c1be e728 30be a5d2 92be 207a 7cbe
00000150: a092 99be 990f c4be 854a 35be 5662 33be
00000160: 4a32 a9be 6b93 8cbe 6a29 95be dde7 89be
00000170: e1b2 b9be 9790 bebe e6b8 a4be 8c7e 90be
00000180: 454b a0be caca 3dbe fb5a b2be f9f8 abbe
00000190: 7f36 6cbe 6518 52be 317b 7dbe b8dc 2bbe
000001a0: 64fa b0be 427d 7fbe 5d28 9ebe 33d6 9ebe
000001b0: 13eb 89be 33fe 48be e2d8 54be aea0 8bbe
000001c0: 9ffb 57be 27a1 b0be ca60 aebe 5773 8fbe
000001d0: 9310 97be 18e2 9cbe 9709 92be 3f4d ddbe
000001e0: 6a9e 90be 71ff 9cbe 1dce 82be b8a0 4ebe
000001f0: ca1f 5cbe e11f 81be 7214 a7be b1c4 e6be
00000200: bc5f 0fbe 0365 cfbe 0e8a d2be d86e bebe
00000210: b021 6abe b719 bfbe 3022 85be be2e 0ebe
00000220: 4b5e a0be 5ce8 90be 579f abbe 47a6 9bbe
00000230: e90b 44be 9926 3fbe 2ef8 d9be 80cc 4ebe
00000240: 484b 8dbe 0fef b0be 3518 bfbe b5c7 7ebe
00000250: a7d8 acbe 9edc afbe cbd0 72be d01e b9be
00000260: 2e51 6dbe ac9c 70be efd8 94be 87b3 8abe
00000270: 900d b0be ae7b 93be 5d91 65be 269b 6abe
00000280: 064c 82be 1936 5cbe 4d5c 40be 3126 afbe
00000290: 462e 89be 05cf a1be db6e a3be 8333 5dbe
000002a0: 1018 5bbe 286f 75be 7bb8 9abe 29b5 98be
000002b0: a96d 6ebe 478f a3be c6f6 aebe 6d3e 8cbe
000002c0: 2e44 8bbe 1a2e fdbe 010a b9be 764d d8be
000002d0: cdc7 26be 3b6c 60be fbe6 97be 8586 63be
000002e0: 23e6 a8be a60a 96be 9e40 d5be 6669 8bbe
000002f0: f51f bdbe b7dc 57be afa4 a7be b1ea 9cbe
00000300: 1d77 b5be f414 50be 33e8 bdbe f8ba c5be
00000310: 1e16 cebe 6f65 78be 13bd b5be e7b9 79be
00000320: 9da1 95be 3c87 adbe fe3e b0be 90d2 37be
00000330: af15 adbe cf75 6bbe b732 c4be 76eb 8fbe
00000340: c26e 59be fb27 82be 8693 78be 6e92 38be
00000350: 8d54 9cbe 8c07 80be 4dba bbbe ae9a a7be
00000360: f8f5 c2be 4edc 91be 10ce aabe c15b 5dbe
00000370: 9b13 a7be cadf babe 6611 abbe ca29 54be
00000380: 37ec 3dbe fb05 45be 3e29 10be e28e 1abe
00000390: ccb0 b0be d656 cfbe ffb2 b6be 4c61 92be
000003a0: ab24 87be c902 77be 0bc3 f4bd d399 c4be
000003b0: e80a 15be 2173 89be 2e09 4cbe 16e9 87be
000003c0: 0937 27be 4413 c4be cf36 9fbe 412c a0be
000003d0: f8e2 8cbe 6842 89be 03a4 9abe 0884 d4be
000003e0: bf48 99be d0a2 83be 5db4 ccbe 2e78 bdbe
000003f0: a66f a6be 2d57 a1be ac18 65be e0c4 80be
-0.18309252 -0.3646808 -0.22351292 -0.35227776 -0.2811896 -0.4468001 -0.16156706 -0.2835209
-0.38641843 -0.27492687 -0.2165642 -0.21482585 -0.17029849 -0.26364315 -0.29112965 -0.1982459
-0.4422747 -0.37679106 -0.24777287 -0.33065897 -0.3602219 -0.29277113 -0.2625978 -0.28475273
-0.35154074 -0.241509 -0.29504395 -0.34972343 -0.22759603 -0.21833858 -0.3894649 -0.393776
-0.3162166 -0.22315572 -0.1878337 -0.3832555 -0.36226472 -0.1989874 -0.2009154 -0.371582
-0.20000973 -0.30412602 -0.16712289 -0.31393823 -0.24885672 -0.38117778 -0.30129296 -0.19645667
-0.20609285 -0.3671774 -0.25152898 -0.26059875 -0.26864463 -0.21512493 -0.3221582 -0.26816854
-0.3702185 -0.30027348 -0.36957958 -0.36348253 -0.3585783 -0.21385096 -0.2811814 -0.24220441
-0.28401378 -0.40542883 -0.26812008 -0.16779429 -0.18309717 -0.43868738 -0.32687998 -0.1986671
-0.2146135 -0.35476786 -0.31634173 -0.29643548 -0.34366116 -0.29128203 -0.33025417 -0.22846493
-0.37870863 -0.17203103 -0.28676334 -0.24655962 -0.29994678 -0.3829315 -0.17704208 -0.17517981
-0.3304618 -0.2745622 -0.2913316 -0.2693471 -0.36269286 -0.37219688 -0.32172316 -0.28221548
-0.31307426 -0.18534389 -0.34835038 -0.3358839 -0.23067664 -0.20517118 -0.24754025 -0.16783416
-0.34566033 -0.24950126 -0.3089017 -0.31022796 -0.2693716 -0.1962822 -0.20785859 -0.27271026
-0.2109208 -0.3449795 -0.3405822 -0.28017685 -0.29504833 -0.30641246 -0.2852294 -0.43222997
-0.2824586 -0.30663636 -0.25547877 -0.20178497 -0.21496502 -0.25219634 -0.32632786 -0.4507194
-0.14001364 -0.40506753 -0.41120952 -0.37193942 -0.22864413 -0.37324306 -0.26002645 -0.13885018
-0.3132194 -0.28302276 -0.33520004 -0.30400297 -0.19145168 -0.18667068 -0.4257216 -0.20195198
-0.27596498 -0.34557387 -0.37323156 -0.2488087 -0.33759043 -0.34348005 -0.2371246 -0.3615632
-0.23175499 -0.23497266 -0.29071757 -0.27090093 -0.34385347 -0.28805298 -0.22418733 -0.22910747
-0.25448626 -0.21505012 -0.1878521 -0.34208825 -0.26793116 -0.31603256 -0.31920514 -0.21601681
-0.21395898 -0.23968184 -0.30218872 -0.29825714 -0.2328402 -0.3194525 -0.34172648 -0.27391377
-0.27200454 -0.49449235 -0.36140445 -0.42246598 -0.16287155 -0.21916287 -0.29668412 -0.22219284
-0.3298808 -0.29305 -0.41650862 -0.2722885 -0.36938444 -0.2108029 -0.3274283 -0.30647805
-0.3544244 -0.20320493 -0.37091216 -0.38619208 -0.4025125 -0.24257444 -0.35495815 -0.24387322
-0.29224864 -0.33892238 -0.3442306 -0.17951417 -0.33805606 -0.22994159 -0.38319942 -0.2810933
-0.21233657 -0.25421128 -0.24275026 -0.18024608 -0.30533257 -0.25005758 -0.36665574 -0.327352
-0.38078284 -0.28488392 -0.33360338 -0.21617033 -0.32632145 -0.36498863 -0.3341171 -0.20719066
-0.1854714 -0.19240563 -0.14078233 -0.15093568 -0.34509885 -0.40495938 -0.35683438 -0.28589857
-0.26395163 -0.24122156 -0.11951264 -0.3839861 -0.14554942 -0.2684565 -0.19925377 -0.26545018
-0.16329588 -0.38295949 -0.31096503 -0.31283763 -0.27516913 -0.26808476 -0.30203256 -0.41506982
-0.29938313 -0.25710154 -0.39981356 -0.37005752 -0.32507056 -0.31511822 -0.22372693 -0.25150204

decoder.layers.0.bias f4 [784]
00000000: f136 a6be 9f3c b2be 8655 74be c211 94be
00000010: 61ae b7be 44c3 c9be e30a 90be a976 83be
00000020: efe7 85be c345 c4be 5188 adbe babd 98be
00000030: 02dd dbbe f50e a9be b769 b2be e571 cbbe
00000040: a767 cabe 0f1b e6be f041 53be 3b71 d1be
00000050: 3d68 d4be 40cd a7be 25e6 dcbe 361e a8be
00000060: ddc3 afbe 1eea a2be de3d b4be 5f8c cebe
00000070: 74ab 85be 55a1 8bbe 5935 aabe fb68 b8be
00000080: 4454 8cbe f05e 94be 2436 83be edf3 c6be
00000090: 8d5b 40be e316 b9be 8a50 7abd 8ff2 b3bd
000000a0: 33eb b6bd 9f91 0abe f800 543c 5068 01be
000000b0: 0064 aabc 682f 8abd 96c9 18be 857e c2bd
000000c0: 14d9 1fbe 490e 3ebe 7843 babe 4b82 8dbe
000000d0: c1f1 aebe dcf9 73be 5d70 c1be 927e 60be
000000e0: bb93 93be 1079 96be bd14 b7be 84d4 9dbe
000000f0: a14a 5fbe 8c8a a5be 9406 37be ba8d 343d
00000100: 6ef8 febd 4474 ff3d f4c3 743d c22e 17bd
00000110: 9f09 003d d556 e3bd 1956 c8bc 08b6 d5bb
00000120: 6387 67be 0028 13be 8e57 95bd 33ed 603d
00000130: b87c 9e3d 4a93 adbc e7ff 973d 04ee 2c3d
00000140: 8184 c2be 7fe0 80be 8725 9bbe 02d1 a5be
00000150: f2e6 90be 092e 8cbe 16d6 dbbe 3765 93be
00000160: 0b54 8bbe 19b4 66be 509b 7c3d 85b7 923d
00000170: 81dc 283e e1dc 8f3d 06ce 373e 35b3 1bbd
00000180: c23d 1abd ea9c 3fbd 0720 d6bc 7463 ecbd
00000190: d06c 9ebe d3c8 debd 22bc bb3c 848e 54bd
000001a0: 5550 163d 0f4d 633d d249 d0bd 10e1 aa3d
000001b0: 252b 80bc 6c06 51be fbf0 90be 6a66 9cbe
000001c0: cc54 bcbe a2ab bebe a9a1 dabe f53c acbe
000001d0: 3373 0abe 1d03 16bd e686 303d 0d44 c33d
000001e0: 03c5 293d fcaf 0a3e 02e1 2cbd 83de cabd
000001f0: 5c7e 823c 68c3 23bd 60cf e1bd 2497 56be
00000200: 42a9 f0bd ef0b 08be 9db3 65be 920d b0be
00000210: 4106 4dbe 5610 a2bd cae1 bf3d d5b2 a63d
00000220: efb5 93bd dad0 313d c6b6 bcbe b81c e3be
00000230: db31 a6be 1a73 b5be 0f2d 83be 838b 34be
00000240: 4704 e33d 243a 8e3d d083 8f3d ff28 e23d
00000250: 2347 2e3d abc6 bcbd 48f2 5abd 1170 54be
00000260: f2d0 52be 8fc7 03be ed50 cdbd 02e1 18bc
00000270: a02a acbc 253e edbd 22e3 213c 3a98 22bd
00000280: 51eb e43c 6071 24bd eb8a 24bd f13b 0c3e
00000290: f3f2 1c3e 0773 9a3d 54c9 923d 02ab d4be
000002a0: 2996 63be 9e6c a0be 77a1 c0be 6fc0 28bd
000002b0: 651e e03d cd5d 963e 1149 c03d 3b3a 983c
000002c0: 2853 a0bd b466 a13c 9182 a83b 93ef 0c3d
000002d0: 0009 0fbe 8a4b c6be b657 81be 4fa3 9ebe
000002e0: 1c6d a6be 1b06 99be a282 05be 4861 473e
000002f0: 75cf 353e 280f 493d c639 0a3e 8f41 8d3d
00000300: 501c 0ebb ce57 b2bb 544f 0fbd 43c5 23be
00000310: c281 89be d126 b0be 4e4f ba3d a725 76bb
00000320: b849 a23e 90da 9e3e 1238 3d3e 80a8 da3d
00000330: 6c52 0d3e 39bb fb3c f90c ee3d 306f 75bd
00000340: b9cc 88be 41bd e1be f9e5 b5be 7b71 4fbc
00000350: 1e85 47be 2d21 6cbe 05d8 86be 0727 b9bc
00000360: 08a9 9b3e bdb5 013d a738 883d 03f0 2b3d
00000370: 2c4b 8fbd dad3 443d d9db 813d 8867 84be
00000380: 0c00 7fbe b93e 263d 412d f13c 0462 5f3e
00000390: 7382 a33e c45a a83e e606 803e 1388 8b3e
000003a0: 5018 1d3d 1333 3e3e fd75 8b3d adef 1fbe
000003b0: 695e 8cbe 662e 8fbe 1acc 2dbe 1876 1b3d
000003c0: 8234 b9bc 8898 3abe 6bc1 5dbe b996 22be
000003d0: 2f60 133c 065a 6bbd f59a c8bd 9afd 91bd
000003e0: 3f84 d0bc c974 eabc 8889 353e 7f8e 1abe
000003f0: 9e7c 70be 14a2 87bd 8971 38bc 1233 cd3b
-0.32463792 -0.34811875 -0.2386075 -0.28919798 -0.35875228 -0.39406788 -0.28133306 -0.25676468
-0.26153514 -0.38334474 -0.33893064 -0.2983225 -0.42942053 -0.33019224 -0.3484628 -0.39735332
-0.39532205 -0.4494252 -0.20630622 -0.409067 -0.41485777 -0.3277378 -0.43144336 -0.3283555
-0.3432912 -0.31819242 -0.3520345 -0.4034147 -0.2610737 -0.27271524 -0.33243826 -0.36017594
-0.2740804 -0.28978682 -0.25627244 -0.38857976 -0.18784924 -0.36150274 -0.061111964 -0.08786499
-0.089315794 -0.13532113 0.012939684 -0.12637448 -0.020799637 -0.06747323 -0.14920649 -0.09496788
-0.15610152 -0.18560137 -0.363796 -0.27638468 -0.3416882 -0.23825783 -0.3778104 -0.21923283
-0.28823647 -0.29389238 -0.3575801 -0.308262 -0.21805812 -0.32332265 -0.17873603 0.044080473
-0.12449728 0.12473348 0.059757188 -0.036909826 0.031259175 -0.11100546 -0.024455117 -0.006521944
-0.2261024 -0.14370728 -0.0729209 0.05491371 0.07738632 -0.021188397 0.074218564 0.042219177
-0.37991717 -0.25171277 -0.3030207 -0.32386023 -0.28301197 -0.27378872 -0.42936772 -0.28788158
-0.27212557 -0.2252964 0.061671555 0.0716391 0.16490366 0.07024551 0.17949685 -0.038012702
-0.037656553 -0.046780504 -0.026138319 -0.11542407 -0.30942392 -0.10878148 0.022916857 -0.051893726
0.036697704 0.05549341 -0.1017033 0.083437085 -0.015645573 -0.20412606 -0.28308854 -0.30546886
-0.36783445 -0.3724032 -0.42701462 -0.33640257 -0.13520508 -0.036624063 0.0430974 0.09534464
0.04144765 0.13543695 -0.04220677 -0.09905722 0.015929393 -0.039981276 -0.11025882 -0.20956093
-0.11751033 -0.13285802 -0.22431798 -0.34385353 -0.20021917 -0.07913272 0.09369238 0.08139578
-0.072124355 0.043412067 -0.36858195 -0.44357848 -0.32459912 -0.35439378 -0.25620314 -0.17631344
0.110848 0.06944683 0.07007563 0.11042976 0.04254831 -0.092175804 -0.053453714 -0.20745875
-0.20587519 -0.12869094 -0.10025201 -0.00933099 -0.021016419 -0.11584119 0.009880813 -0.039695956
0.027944239 -0.040147185 -0.040171545 0.13694741 0.15327053 0.07541471 0.071673065 -0.4153672
-0.2222525 -0.31332868 -0.37623188 -0.041199144 0.10943297 0.2936844 0.09388936 0.018582454
-0.07828361 0.019702293 0.005142518 0.034408163 -0.13968277 -0.38729507 -0.2526223 -0.3098397
-0.3250512 -0.2988747 -0.13038114 0.19470704 0.1775492 0.04908672 0.13498601 0.0689727
-0.0021684356 -0.005442596 -0.034987763 -0.15993218 -0.2685681 -0.34404615 0.090971574 -0.0037559064
0.31696868 0.31026125 0.1847842 0.1067667 0.13800973 0.030728923 0.11623568 -0.05992049
-0.2671869 -0.44089702 -0.35527018 -0.012661333 -0.19484374 -0.2305953 -0.26336685 -0.022601618
0.30402398 0.03166746 0.066514306 0.04197694 -0.0699676 0.0480536 0.06340761 -0.25860238
-0.24902362 0.04058716 0.029440524 0.21814734 0.31935462 0.3288175 0.25005263 0.27252254
0.038353264 0.18574171 0.06809614 -0.15618773 -0.2741578 -0.27965087 -0.1697239 0.03795442
-0.022608045 -0.18222249 -0.21655814 -0.15877809 0.0089951 -0.0574589 -0.09795181 -0.07128449
-0.025453685 -0.02862014 0.17728245 -0.1509342 -0.23485038 -0.06622711 -0.011257538 0.0062621916
